weights/adult.pth (torch_old, 12897 bytes, 5 tensors)

weight f4 [20, 36]
0.0041376264 0.049400352 -0.043224692 1.4353395 -0.07263871 -0.0072702277 -0.057327986 -0.062831804
-0.041449025 0.016037222 0.12959827 -0.009901063 0.090955555 -0.11631884 -0.1876991 0.099565476
-0.017956698 -0.14500616 0.061185773 0.09306722 -0.11716089 0.10602114 -0.075206965 -0.16203898
0.06434536 0.1352003 0.21839254 -0.13286775 -0.098070726 0.1305208 -0.04312031 -0.23518747
0.012169151 0.012136383 0.22763784 0.009583695 0.034856636 -0.10155152 -0.14807744 -1.9942003
-0.33056667 -0.2518884 0.102919534 0.00670501 0.20644811 -0.01711328 0.05922833 0.18462414
0.12646739 0.18621583 0.2110012 -0.04430697 0.14202647 -0.17241819 -0.006022821 0.17855458
0.055212516 0.076614335 0.14469004 0.20688817 0.038011454 0.06294875 -0.1214302 -0.095664926
0.05412382 0.030994283 0.05899389 -0.014064811 0.059154037 0.09006916 0.21137185 0.19521827
0.27371773 0.41837382 0.35260513 1.995937 0.48025844 0.43190154 0.024503285 -0.09935167
0.026689816 -0.05291546 -0.048507217 0.21729043 -0.12541445 -0.1276656 0.015214072 -0.013883685
0.069927014 -0.07016585 -0.028411644 0.029254997 -0.02294872 -0.12788238 0.0959109 0.13030736
0.04961599 -0.13949035 -0.16462174 -0.0424192 -0.05286981 -0.25368035 -0.121357426 0.07006366
-0.17733616 0.11724861 -0.005394573 -0.0075495956 -0.004718425 -0.20125899 0.04067104 -1.972791
-0.18040706 -0.15068774 -0.060407877 0.0005022917 0.035183948 0.07320723 0.30402273 0.019946808
0.18723284 0.076378986 0.039287157 0.14444144 0.15218738 -0.024193594 -0.1028084 0.07492945
0.18343037 0.08493238 -0.021111587 0.11694457 0.009941621 0.14962374 0.17753929 0.15412705
-0.0056964727 0.084017016 -0.047965087 0.07443033 0.16847515 0.21929954 0.28242475 0.21401967
-0.29605657 -0.39859197 -0.028859537 -1.6089904 -0.21296835 -0.3225761 0.14498271 -0.030153347
-0.1318942 0.24897243 -0.19655214 -0.032739334 0.2980655 0.093415216 0.18752106 0.1044458
-0.15996347 0.13408872 -0.0089911595 0.08169626 0.042350948 -0.000255568 -0.16997723 0.05433544
0.16070698 0.06738724 0.23601143 0.13466313 -0.15763637 0.11063832 -0.03846262 0.19848496
0.22919035 0.06673632 0.2847158 -0.0484273 -0.4717831 -0.20370363 0.10699986 -1.2674042
-0.1341743 -0.05797511 0.14891577 0.13041294 0.15802997 0.10076816 -0.22968793 -0.328569
0.2741031 0.10987417 0.054714855 0.24583863 0.19809273 0.2669389 0.0888065 -0.0726378
-0.062928505 0.04564444 0.025145024 -0.09218079 -0.08080381 0.23825161 0.1825031 0.03945295
-0.2882374 0.2946436 -0.044320673 0.1590564 0.024127973 -0.06793634 -0.01099801 -0.031989194
0.10672317 0.014561706 0.08751165 -2.011966 -0.07207748 -0.0757288 0.12705596 -0.009180325
-0.049349304 0.09721851 -0.032291137 0.02640898 0.24492747 0.006762781 0.14833617 0.1539704
-0.008177627 -0.12583263 -0.0987815 -0.014263144 0.0015227273 -0.015519631 -0.078333326 -0.049637593
0.021204298 0.07036002 0.04674544 0.13996153 -0.20837249 0.0103695365 0.13145067 0.24127786
0.10737585 0.1008199 0.039795034 0.0389443 0.0411824 -0.063219614 0.1417292 -1.9585431
00000000: ed94 873b 0658 4a3d 600c 31bd 34b9 b73f
00000010: 9bc3 94bd 173b eebb c0d0 6abd f6ad 80bd
00000020: 74c6 29bd 7e60 833c 69b5 043e 1138 22bc
00000030: e846 ba3d 9238 eebd 3134 40be fce8 cb3d
00000040: ed19 93bc 7f7c 14be ef9d 7a3d 079a be3d
00000050: 0cf2 efbd 9d21 d93d 1c06 9abd 8ced 25be
00000060: 80c7 833d f371 0a3e 4ba2 5f3e 7c0e 08be
00000070: 4ed9 c8bd 3fa7 053e ec9e 30bd fcd4 70be
00000080: 1e61 473c aed7 463c e519 693e ee04 1d3c
00000090: d5c5 0e3d 3efa cfbd 9da1 17be f541 ffbf
000000a0: 0940 a9be 84f7 80be 7ac7 d23d b3b5 db3b
000000b0: 2267 533e 2631 8cbc 6899 723d 1c0e 3d3e
000000c0: ab80 013e 5daf 3e3e b310 583e 3a7b 35bd
000000d0: 636f 113e 658e 30be 165b c5bb 03d7 363e
000000e0: 8526 623d fae7 9c3d a029 143e 7eda 533e
000000f0: e6b1 1b3d 46eb 803d 66b0 f8bd f9eb c3bd
00000100: f0b0 5d3d b9e7 fd3c 94a3 713d 1870 66bc
00000110: 814b 723d 2e76 b83d dd71 583e 4ce7 473e
00000120: bb24 8c3e 1835 d63e a988 b43e dd7a ff3f
00000130: 6fe4 f53e 3322 dd3e 1dbb c83c e378 cbbd
00000140: 9aa4 da3c e2bd 58bd 81af 46bd 6281 5e3e
00000150: a56c 00be c5ba 02be 7144 793c 6578 63bc
00000160: e535 8f3d 1db3 8fbd 89bf e8bc 2da8 ef3c
00000170: f4fe bbbc 99f3 02be ef6c c43d 4b6f 053e
00000180: 233a 4b3d 8fd6 0ebe 9a92 28be c1bf 2dbd
00000190: 048e 58bd 64e2 81be 3e8a f8bd 897d 8f3d
000001a0: 9c97 35be 0a20 f03d f5c4 b0bb 9962 f7bb
000001b0: 059d 9abb d616 4ebe ad96 263d 6a84 fcbf
000001c0: a1bc 38be e34d 1abe 406e 77bd 3aac 033a
000001d0: 0b1d 103d aced 953d dea8 9b3e 7d67 a33c
000001e0: f7b9 3f3e 966c 9c3d 92eb 203d 75e8 133e
000001f0: 02d7 1b3e a531 c6bc 368d d2bd 9d74 993d
00000200: 2cd5 3b3e 07f1 ad3d 35f2 acbc a280 ef3d
00000210: 2ee2 223c f736 193e dccc 353e 7bd3 1d3e
00000220: 7aa9 babb 1d11 ac3d 0a77 44bd ee6e 983d
00000230: c084 2c3e 0f90 603e fa99 903e f927 5b3e
00000240: ba94 97be 3f14 ccbe d66a ecbc 66f3 cdbf
00000250: 6014 5abe b228 a5be 5976 143e 2704 f7bc
00000260: 460f 07be a1f2 7e3e f744 49be ae19 06bd
00000270: 0b9c 983e 7a50 bf3d 8505 403e aee7 d53d
00000280: 77cd 23be 8e4e 093e a84f 13bc 5e50 a73d
00000290: 3078 2d3d c2fd 85b9 830e 2ebe d78e 5e3d
000002a0: 5f90 243e 5202 8a3d fbac 713e 22e5 093e
000002b0: 6e6b 21be 5896 e23d fb8a 1dbd a43f 4b3e
000002c0: e0b0 6a3e 0dad 883d 45c6 913e b45b 46bd
000002d0: 8e8d f1be af97 50be be22 db3d 4d3a a2bf
000002e0: fd64 09be 4f77 6dbd 607d 183e f88a 053e
000002f0: 9cd2 213e 895f ce3d 5033 6bbe 323a a8be
00000300: 3e57 8c3e b505 e13d af1c 603d 1fbd 7b3e
00000310: d2d8 4a3e 37ac 883e 2fe0 b53d 20c3 94bd
00000320: a9e0 80bd aaf5 3a3d f0fc cd3c 48c9 bcbd
00000330: 787c a5bd 3bf8 733e 18e2 3a3e 6b99 213d
00000340: da93 93be 87db 963e 9889 35bd aedf 223e
00000350: 07a8 c53c 3522 8bbd ff30 34bc 1a07 03bd
00000360: ad91 da3d 3994 6e3c 4f39 b33d 0dc4 00c0
00000370: 5c9d 93bd b317 9bbd f51a 023e 1369 16bc
00000380: 7f22 4abd 801a c73d b643 04bd a557 d83c
00000390: 44ce 7a3e 529a dd3b 70e5 173e 6baa 1d3e
000003a0: 74fb 05bc 45da 00be f44d cabd f6af 69bc
000003b0: 4096 c73a 0d46 7ebc 396d a0bd ca50 4bbd
000003c0: a3b4 ad3c ea18 903d 2678 3f3d 1352 0f3e
000003d0: 995f 55be fde4 293c 019b 063e 8b11 773e
000003e0: dfe7 db3d aa7a ce3d 1e00 233d 0f84 1f3d
000003f0: e0ae 283d 4979 81bd 7621 113e 8ab1 fabf

bias f4 [20]
0.086509064 -0.03826181 0.17474149 0.22278243 0.09177209 -0.007678706 0.03934265 0.1646864
0.2635101 -0.040725786 0.28529835 0.24974544 0.036930334 0.14986783 0.2251548 0.0693049
0.100255474 0.110841274 0.29516733 0.021496095
00000000: aa2b b13d 6ab8 1cbd 6fef 323e 1421 643e
00000010: 01f3 bb3d a89d fbbb c225 213d 8da3 283e
00000020: ccea 863e 15d0 26bd a012 923e 45bd 7f3e
00000030: 4344 173d f476 193e fb8e 663e baef 8d3d
00000040: be52 cd3d c000 e33d 2c20 973e 9418 b03c

weight f4 [10, 20]
-0.5451872 0.30648464 -0.37608343 0.27141443 0.30511364 0.64820266 0.46487814 0.2963805
0.36443728 -0.16356628 0.30195 0.49064773 -0.2599358 -0.49690866 0.3178217 -0.45226008
0.43786386 0.2883208 0.10979462 -0.20704202 -0.3943453 0.29727298 -0.24639012 0.31517875
0.34800157 0.31926426 0.38215104 0.23165688 0.27427462 -0.12056979 0.3110769 0.34810993
-0.4023988 -0.5318782 0.34219018 -0.45855105 0.41214564 0.18693453 0.2665916 -0.3266237
0.17398642 -0.20921585 -0.024669975 0.14246126 0.0696684 0.0028317114 0.08529917 -0.2202471
0.11478329 -0.19824648 -0.1629568 0.08729692 -0.084412724 0.13780034 -0.17527874 -0.10799267
0.02505086 0.094578564 -0.058588248 -0.050406475 0.51042306 -0.15912898 -0.10070989 0.057217505
-0.099496774 -0.3306684 -0.16662018 -0.05194766 -0.14931968 -0.05645275 -0.08275661 -0.18164337
0.17701726 0.28382128 0.16638507 0.27029547 -0.087852776 -0.14174567 0.24550202 0.012330279
0.36422127 0.041613616 0.31039822 0.20960122 -0.14796698 -0.05856203 -0.229799 -0.16112874
-0.13631904 -0.07604772 -0.16540797 -0.060075272 0.14466636 0.6067596 -0.008727447 0.3123011
-0.12854095 -0.107496604 0.18051764 0.0399086 -0.07038199 0.2006784 -0.080046766 0.052442927
-0.11269159 0.14672016 -0.23562054 -0.16703638 -0.20753217 -0.22526315 0.026892357 0.15588714
0.08557647 0.057561785 -0.20953539 0.005799599 -0.03948137 -0.061619457 -0.19639549 0.19417568
-0.4889777 0.39375064 -0.18546541 0.13566868 0.59821594 0.6880634 0.03513083 0.34824356
0.3877046 -0.4018132 0.31768557 0.26357177 -0.2012259 -0.5805976 0.32506666 -0.16463464
0.5307993 0.2853824 0.17895757 -0.29194337 0.5906127 -0.093038775 0.07884549 -0.1874631
-0.059244994 -0.29178438 -0.23163971 -0.046894092 -0.051413536 0.09303075 -0.20594504 0.09192863
0.3842658 0.55908155 0.106250845 0.17396468 0.03860835 -0.038487613 0.12748422 -0.048025902
-0.36889705 0.43484858 -0.36679456 0.5081472 0.43691218 0.5171317 0.31038788 0.29396302
0.14218085 -0.29564267 0.16344196 0.3597921 -0.38417622 -0.21479398 0.2540908 -0.16529247
0.33852094 0.20448658 -0.0301585 0.0026075607 0.56141037 -0.49698696 0.5344483 -0.12754373
-0.28931543 -0.29039156 -0.054095026 0.008235774 -0.022743616 0.5281231 0.19379893 -0.37376302
0.404428 0.4891433 -0.16677311 0.46590433 -0.28003082 0.18423772 0.3081754 0.24756251
00000000: 6391 0bbf 8eeb 9c3e 028e c0be d5f6 8a3e
00000010: db37 9c3e 9cf0 253f 8204 ee3e 2fbf 973e
00000020: 8697 ba3e eb7d 27be 3199 9a3e 2e36 fb3e
00000030: 4e16 85be d06a febe 87b9 a23e a28e e7be
00000040: b12f e03e c99e 933e 00dc e03d d302 54be
00000050: a1e7 c9be 2a34 983e b14d 7cbe 1c5f a13e
00000060: 432d b23e 9b76 a33e 4da9 c33e 7637 6d3e
00000070: b96d 8c3e 4bed f6bd 7945 9f3e 773b b23e
00000080: 3707 cebe 2b29 08bf 8d33 af3e 34c7 eabe
00000090: c104 d33e c46b 3f3e b27e 883e 393b a7be
000000a0: 7f29 323e ae3c 56be b018 cabc 5de1 113e
000000b0: 4eae 8e3d 3c94 393b 55b1 ae3d 7588 61be
000000c0: 8013 eb3d 2001 4bbe 26de 26be bac8 b23d
000000d0: 94e0 acbd 881b 0d3e 457c 33be 432b ddbd
000000e0: 7637 cd3c 68b2 c13d 3bfa 6fbd 0577 4ebd
000000f0: 16ab 023f b5f2 22be fd40 cebd e75c 6a3d
00000100: f7c4 cbbd 5e4d a9be 7b9e 2abe 12c7 54bd
00000110: 42e7 18be 003b 67bd 4c7c a9bd b800 3abe
00000120: 0344 353e 0651 913e d960 2a3e 2b64 8a3e
00000130: 28ec b3bd c725 11be e264 7b3e f004 4a3c
00000140: 367b ba3e 0a73 2a3d 84ec 9e3e b4a1 563e
00000150: a884 17be bdde 6fbd 6e50 6bbe effe 24be
00000160: 3897 0bbe e8be 9bbd b560 29be 7d11 76bd
00000170: 6b23 143e 9954 1b3f 91fd 0ebc eee5 9f3e
00000180: 3da0 03be 2e27 dcbd 9ed9 383e 3377 233d
00000190: 6f24 90bd a37e 4d3e 8fef a3bd 65ce 563d
000001a0: d9ca e6bd cf3d 163e 8346 71be 960b 2bbe
000001b0: 5083 54be 62ab 66be 5c4d dc3c e1a0 1f3e
000001c0: b742 af3d e8c5 6b3d 7290 56be 900a be3b
000001d0: 38b7 21bd af64 7cbd e61b 49be fdd5 463e
000001e0: 495b fabe af99 c93e a5ea 3dbe bbec 0a3e
000001f0: ae24 193f ec24 303f 58e5 0f3d fb4c b23e
00000200: 3881 c63e 76ba cdbe afa7 a23e e1f2 863e
00000210: 2a0e 4ebe 0ba2 14bf 236f a63e fc95 28be
00000220: 77e2 073f a41d 923e a740 373e 9a79 95be
00000230: 6532 173f 1d8b bebd bf79 a13d 54f6 3fbe
00000240: e1aa 72bd c364 95be f632 6dbe 0514 40bd
00000250: 0097 52bd e886 be3d 42e3 52be 1445 bc3d
00000260: 7dbe c43e f81f 0f3f 0b9a d93d cc23 323e
00000270: ca23 1e3d 30a5 1dbd 398b 023e cfb6 44bd
00000280: 13e0 bcbe 79a4 de3e 7fcc bbbe ef15 023f
00000290: f4b2 df3e be62 043f 29eb 9e3e 5282 963e
000002a0: db97 113e 7a5e 97be 545d 273e ac36 b83e
000002b0: bfb2 c4be f4f2 5bbe 3018 823e 6e42 29be
000002c0: 9e52 ad3e ee64 513e f50e f7bc 9ce3 2a3b
000002d0: 97b8 0f3f 1375 febe 9bd1 083f d39a 02be
000002e0: 2721 94be 34ae 94be bf92 5dbd 57ef 063c
000002f0: d250 babc 1333 073f 3a73 463e de5d bfbe
00000300: 3011 cf3e fe70 fa3e 92c6 2abe 038b ee3e
00000310: 3360 8fbe d0a8 3c3e 2bc9 9d3e 0781 7d3e

bias f4 [10]
0.32539278 0.048521195 -0.11878088 -0.020059684 -0.099902295 0.19698018 0.2042465 0.101444826
0.3981865 -0.09944643
00000000: e299 a63e 29be 463d 6443 f3bd 3554 a4bc
00000010: 9399 ccbd 2cb5 493e ff25 513e 4ec2 cf3d
00000020: 1adf cb3e 92aa cbbd

weight f4 [1, 10]
-0.59352326 -0.66631925 0.05421369 0.3637386 0.39506182 0.033690035 -0.51584864 0.50867456
-0.38721776 0.7032338
00000000: 24f1 17bf e693 2abf 2d0f 5e3d f23b ba3e
00000010: 8b45 ca3e 90fe 093d a80e 04bf 7f38 023f
00000020: 6841 c6be 2107 343f
