weights/Give_me_some_credit.pth (torch_old, 12491 bytes, 5 tensors)

weight f4 [20, 10]
00000000: 57ce 663f 3fa5 49be dceb 973e 01a2 0dbd
00000010: 6cff 89be 8646 04bd d600 843f 4cd6 bc3e
00000020: 39a8 473f 7642 8c3c 37b0 793f 4871 21be
00000030: f3a3 bb3e 786f e5bb 6629 39be fd8e 123e
00000040: f0b7 8f3f d16f 953e 48fc 443f 2064 07be
00000050: 1814 52be 8fca 5fbe c4e8 fb3d ccf0 19be
00000060: a670 4b3e ceaf 88be 3c58 9fbe b2bd e1bd
00000070: a81c b1bd 5af2 94be cad3 95bf dff6 573e
00000080: 4a09 62bf 0f56 983d eddd b13e 57d7 c9be
00000090: 4181 b1bf 6fe0 c2be 6e76 51bf c293 a3be
000000a0: fe32 4e3f 084f 133d b01f bd3e 3001 bcba
000000b0: 84da cfbe 4227 58bd 41ab 973f fa0c fb3c
000000c0: 26e9 5d3f bd1d cb3c fdde 283f 98ac 563c
000000d0: 003a 573e fbba eabb 9416 4bbe bc46 363e
000000e0: fe4f 723f 9f6f ad3e 16ae 8cbd ab78 ffba
000000f0: 0030 9d3d cff8 9bbe eee2 88be 08f4 9dbe
00000100: 802a 003b c08d 843d 4c18 393e 1e00 2cbe
00000110: a4a6 9fbd 4624 b9bd 0a5e 40be 8ce0 dd3d
00000120: f3d9 8b3e d498 68be 62d4 05be 9192 62be
00000130: da11 1a3e 2ee2 4d3e 2062 233c 0400 8ebe
00000140: 9078 a2bf ca44 40bd d689 28bf d4df 343e
00000150: 8841 1ebd ad28 cdbd 9f30 59bf d34f 1bbe
00000160: de77 69bf 8bc7 82be 1871 703d 325d 64be
00000170: 4e98 95be 9293 8dbe 0066 29bb f59d a1be
00000180: 0ede 663e f002 0ebd a1e9 1abe 98f4 233e
00000190: a7bc 793f 7bf5 c23c d537 8d3e 3e6a 333c
000001a0: 8a36 b7bd 176e 1f3e da82 b03f ee22 923e
000001b0: 19c1 3c3f 0c81 d3bc aa6e 7f3f 068e adbd
000001c0: ddf4 0d3f c149 c2bc 691f d6be 39d5 c03d
000001d0: d129 b23f 0667 ad3e 073b 803f bf1d a93c
000001e0: a4b8 a6bf 4e32 9b3e 3574 62bf 971a 543e
000001f0: f431 77bb 2d77 1d3d 4f52 43bf 98e6 dbbe
00000200: 335c 12bf 6445 c53d 483f 53bf c78b 683e
00000210: 9713 93be d100 a23d edd3 6dbd 31fe 043d
00000220: ebb8 7abf fba9 9c3d 97ce 86bf 2d4d b9bd
00000230: e904 623f a7b9 c9bd d19b 6e3e f18a 3c3c
00000240: 783a 06bf 3689 e2bd fcb7 843f c8ae 24bf
00000250: e180 b43e da47 263b c63b 883f 830d 903d
00000260: 8348 043f e9e6 843d 4381 8bbe 4085 f3bb
00000270: e58b a33f 59fd 1e3e 0976 763f 7880 b63d
00000280: e95d 193f 3ead 54bc ef45 f63e 7719 803c
00000290: c452 85be 0c9d 693c 063d 9f3f aa99 d8be
000002a0: 2176 313f af21 9d3c 8600 503f 68da 3fbc
000002b0: 806d 2e3f b740 4a3b fd3a 08bf 77e6 483e
000002c0: caec 6e3f aaaf fbbd 7fd9 dd3e d094 7bbd
000002d0: 4ef1 80bf 44a9 70bd 7ef4 01bf ce09 153e
000002e0: b643 0d3e d4da a4be f907 8bbf 285a 32be
000002f0: 9297 2dbf 2f4b f1bd 8b51 4abe 0807 3a3e
00000300: 56aa 783e d657 a0be ec20 d0bd 271b 8ebe
00000310: 386e d0bd 40b9 053e 759b 13be 62e4 4a3e
0.901586 -0.19691943 0.29672134 -0.034578327 -0.26952684 -0.03229382 1.0312755 0.36882246
0.7799106 0.017121535 0.9753451 -0.1576587 0.3664852 -0.0070018135 -0.18082199 0.14312358
1.1228008 0.29186872 0.7694745 -0.13221788 -0.20515478 -0.21854614 0.12300256 -0.15033263
0.1986719 -0.26696628 -0.31122005 -0.1102251 -0.08648044 -0.2909115 -1.1705258 0.21090268
-0.88295424 0.074382894 0.34739628 -0.39422104 -1.386757 -0.38061854 -0.81821334 -0.31948668
0.8054656 0.035964042 0.36938238 -0.0014343616 -0.40596402 -0.052771814 1.1849138 0.030645836
0.8668388 0.024794454 0.65965253 0.013102673 0.21018219 -0.007163403 -0.19832832 0.1780042
0.9465331 0.33874223 -0.06869142 -0.0019490918 0.07675171 -0.30463263 -0.26735634 -0.30850244
0.0019556582 0.06472349 0.18075675 -0.1679692 -0.07795456 -0.09040122 -0.18785873 0.108338445
0.2731472 -0.2271455 -0.13069299 -0.22126223 0.15045872 0.20105812 0.009972125 -0.27734387
-1.2693043 -0.046940602 -0.6583532 0.17663509 -0.038636714 -0.10017524 -0.84839815 -0.1516717
-0.9119853 -0.25542864 0.058701605 -0.22301176 -0.29217762 -0.2765165 -0.002584815 -0.31565824
0.22545645 -0.03467077 -0.15128185 0.16011274 0.97553486 0.023798695 0.2758166 0.010950623
-0.089459494 0.1556934 1.3789933 0.28542274 0.73732144 -0.02581837 0.99778235 -0.084743544
0.55451757 -0.02371681 -0.4182084 0.09415669 1.3919011 0.33867663 1.0018014 0.020644067
-1.3025098 0.30311817 -0.8845857 0.20713268 -0.0037718983 0.038443733 -0.7629747 -0.42949367
-0.57171935 0.09632376 -0.82518435 0.22709571 -0.28725883 0.07910312 -0.058063436 0.03246898
-0.9793841 0.07649609 -1.0531796 -0.09047923 0.8828874 -0.098498635 0.23301627 0.011507736
-0.52432966 -0.11061327 1.0368648 -0.64329195 0.35254577 0.0025372417 1.0643241 0.07033827
0.51673144 0.06489355 -0.27247056 -0.007431656 1.2777067 0.15526332 0.9627386 0.08911222
0.5990892 -0.012980757 0.4810023 0.015637143 -0.26039708 0.014258634 1.2440498 -0.42304736
0.69320875 0.0191811 0.812508 -0.011709787 0.68135834 0.0030861327 -0.5321501 0.19619165
0.9333006 -0.12289365 0.4333 -0.061421216 -1.007364 -0.058755174 -0.5076369 0.14554521
0.13795361 -0.32198203 -1.0861808 -0.17417204 -0.678094 -0.11781918 -0.19757669 0.18166745
0.24283728 -0.31317014 -0.10162529 -0.2775509 -0.101772726 0.13058949 -0.14414771 0.19813684

bias f4 [20]
00000000: b4a4 b23d 844a b23c 82cb 8abd 14f1 e63d
00000010: f4f9 d0bb 9766 fbbc 5a95 9ebe f96e 9ebe
00000020: 2b50 133e 5a78 9cbd d537 55bd 0cbb 323c
00000030: 9522 8f3d 7abb ca3c 7024 a03d 2f4e 4dbd
00000040: 3b3e 4f3c 2f5c 37bc de10 823e 94b2 92be
0.08722821 0.021764047 -0.06777097 0.11276451 -0.006377453 -0.030688567 -0.3097332 -0.3094404
0.1438605 -0.07640143 -0.0520552 0.010908853 0.06989018 0.024747599 0.0781945 -0.05012339
0.012649114 -0.011191412 0.25403494 -0.2865187

weight f4 [10, 20]
00000000: 53c4 edbe 0080 b0be 72ad 353e 3198 173f
00000010: 7e26 e9be bcb9 d0be 0058 4a3e 10f9 f33d
00000020: b3d7 fc3e 27b9 09be 2a53 5bbf b02c 09bf
00000030: 6519 ef3c b80d 7a3e a5f9 0bbf 4eee 11bf
00000040: 1a87 2bbf 1434 29bf cbd4 593e 1013 793d
00000050: 05f6 1c3e 3a21 22be 0036 e039 aa1d 5a3e
00000060: 9823 3bbe 7fd3 0c3c f941 62be 1878 8cbc
00000070: c067 ebbc 1223 45be 3eb6 0e3c 761e 9cbc
00000080: 00d5 af3a d22e fdbd 2e9a 403e 3c2a 343e
00000090: 85cb 40be d68d 20be 06e7 3abe 1086 dcbd
000000a0: 8f10 febe 5c2e d7be 69fc 53be 22d6 273f
000000b0: 65c1 34bf 920f b1be b7c6 ebbd aa41 bdbd
000000c0: 393e a63e e8a2 47be e4b2 3ebf 0af7 21bf
000000d0: 8fd2 383e 54ee dc3e ab66 94be fc65 03bf
000000e0: 6eea 0cbf dc3c 19bf d9b8 b63e 70c8 623e
000000f0: 46cf 813e fec3 b93e a40e a93d 6e25 d0bd
00000100: 77c5 513f 51d9 be3e 9041 54be b076 373c
00000110: 2f3b 0bbe 9099 953d 3c80 fc3e 5851 063f
00000120: 59d7 893c ea67 ccbd 66a8 063f 7fe2 363f
00000130: eba2 1a3f 531f 233f 3367 e03d 0c39 2fbe
00000140: dcb0 f93e 4cdf 0e3f a089 543d 5cbe 53be
00000150: e439 d73e affb 1d3e 9ae0 2ebe 57e4 50be
00000160: caf2 7fbe 2073 9c3d 7940 543f a7b1 043f
00000170: 228a 46bd 1c13 a2be 2272 0a3f 538e 193f
00000180: 12ad ff3e 7f5f fc3e 846e e3bd 72ae 44be
00000190: 48f3 35be 451f aebc e25a 343e 18ff 95bd
000001a0: 857a 9e3d d687 123e 3c43 0c3e 005f ca3d
000001b0: 85fa 43be 6440 05be cb6b d4bc 1982 d93d
000001c0: ceb8 233d c028 2fbe 054b b2bc 19d1 153d
000001d0: febd be3d c96e 6ebe 5cc2 ddbd a865 a2bd
000001e0: b039 0cbf f9bd 2ebf 64a9 f9bd a56e 813e
000001f0: cf8b 44bf fb29 a1be c0fa 553b 88be d33d
00000200: 9f37 ff3e 627b 003e e727 45bf 78df 2cbf
00000210: 3b98 a93e 9c13 883e c71c 07bf 38e1 60bf
00000220: 7020 29bf 9e8a 22bf 8c5f 8a3e 80e2 cabc
00000230: f912 b5bd ecf3 16bf 8c70 5fbd dbf4 003f
00000240: 7183 2ebf f44d 06bf 8a09 2e3e 57ee efbd
00000250: ed99 0d3f 7c76 b9bd 5786 4bbf 3c05 2bbf
00000260: b942 ab3e fd5e 1f3e 28cb cbbe fd3e 1abf
00000270: c09c 14bf 15e1 30bf 38d4 193e ecbe 263e
00000280: 4daa debe 7c76 d9be 2c9b 3abe f405 1b3f
00000290: 6049 34bf d462 99be 48a3 96bd d857 acbc
000002a0: 75b7 0c3f 3c7e 7bbd db34 6dbf 0873 3abf
000002b0: 13ed 563e 0a51 d33e 7cd5 eebe 3e97 5abf
000002c0: a7c3 4fbf f225 08bf 404a 113e eb73 3bbe
000002d0: 423e 1abe e132 4abe c0df a13b 6409 b33d
000002e0: 96b6 e73a ce8e c83d 0e33 463e c4a6 b73d
000002f0: 4202 a4bd 9c9c 92bd fa85 a53d a509 953d
00000300: 276f 2dbe b634 243e c4fc 4abd 13ea 12be
00000310: 229c 9c3d fe3a b13d 90e8 7ebe 4c5d d13d
-0.46438846 -0.34472656 0.17741945 0.592166 -0.4553718 -0.40766704 0.19760132 0.11912739
0.49383315 -0.13449536 -0.85673773 -0.5358381 0.029186914 0.24419296 -0.546778 -0.5700425
-0.67003024 -0.6609509 0.2127258 0.060809195 0.15328224 -0.15832987 0.00042764843 0.21300378
-0.18275297 0.0085953465 -0.22095479 -0.017147109 -0.028735995 -0.1925166 0.008710442 -0.019057494
0.0013414919 -0.12362446 0.18808815 0.17594236 -0.18827637 -0.15679106 -0.18252191 -0.10767758
-0.49622008 -0.42027557 -0.20701756 0.65561116 -0.70607597 -0.34582192 -0.11512511 -0.0924104
0.32469347 -0.19495738 -0.74491715 -0.63267577 0.18049072 0.4315058 -0.2898458 -0.5132749
-0.5504521 -0.5985849 0.35687903 0.22146773 0.2535345 0.36282343 0.082547456 -0.10163389
0.8194193 0.37275174 -0.20728135 0.011197731 -0.13596795 0.0730468 0.49316585 0.5246787
0.016826319 -0.099807575 0.52600706 0.71439356 0.60404843 0.6371967 0.10957184 -0.17111605
0.48767745 0.55809474 0.051889062 -0.20678085 0.42036355 0.15428041 -0.17077866 -0.20399605
-0.2499496 0.07639146 0.8291088 0.51833576 -0.048471577 -0.31655204 0.540804 0.59982795
0.4993673 0.49291608 -0.111050636 -0.1920717 -0.17768586 -0.021255145 0.17612794 -0.07324046
0.077382125 0.1430963 0.13697523 0.09881401 -0.19138534 -0.13012844 -0.025930306 0.10620517
0.039971165 -0.17105389 -0.021764288 0.036576364 0.09313582 -0.23284449 -0.10828087 -0.07929546
-0.54775524 -0.68258625 -0.12190512 0.25279728 -0.7677583 -0.3147734 0.003265068 0.10339075
0.49847123 0.12547067 -0.7701401 -0.67528486 0.33123955 0.2657746 -0.52778286 -0.87843657
-0.6606512 -0.63492763 0.2702602 -0.024766207 -0.08841509 -0.58965945 -0.054550692 0.5037362
-0.68169314 -0.524627 0.16995826 -0.117153816 0.55313 -0.09055802 -0.7950186 -0.6680486
0.33449343 0.15563579 -0.39803433 -0.6025236 -0.5805168 -0.6909345 0.15022361 0.16283768
-0.43489304 -0.4247321 -0.18223256 0.6055596 -0.7042446 -0.29958212 -0.07355362 -0.02103798
0.54967433 -0.061399683 -0.92658776 -0.72831774 0.20988874 0.41272765 -0.4664725 -0.8538703
-0.81157917 -0.531829 0.1418848 -0.18305938 -0.15062812 -0.19745971 0.004940003 0.087420255
0.0017678316 0.09792863 0.19355413 0.08967355 -0.08008243 -0.07158777 0.080821946 0.0727723
-0.16936933 0.16035733 -0.049557462 -0.14347105 0.076469675 0.0865383 -0.24893403 0.10222873

bias f4 [10]
00000000: 6be0 cf3e 07c0 39be 23ee 5f3e 1645 45bd
00000010: 64e1 cd3c e0a4 94be 4ca8 8d3e e8ca 9d3e
00000020: 61c7 fc3e 6660 6dbe
0.40600905 -0.18139659 0.21868186 -0.04816159 0.025131889 -0.2903204 0.27667463 0.30818868
0.49370864 -0.23181304

weight f4 [1, 10]
00000000: 180d 4e3f ca7f 30be 708a 643f 8189 40bf
00000010: d709 37bf 1842 0e3e 4795 643f 4496 5d3f
00000020: 276e 1f3f 636c 333e
0.8048873 -0.17236248 0.8927374 -0.75209814 -0.7149939 0.138924 0.8929028 0.8655741
0.62277454 0.17521815
