weights/heloc.pth (torch_old, 11786 bytes, 5 tensors)

weight f4 [20, 23]
0	0x3e5d741b	0.21626322
1	0x3eda45fc	0.4263152
2	0xbe3aa37f	-0.18226431
3	0x3f0462dd	0.51713353
4	0x3eb88ad4	0.36043417
5	0xbf27eff7	-0.6560053
6	0x3e3eb511	0.18623759
7	0x3eca2e11	0.3948827
8	0xbe9e0126	-0.3086025
9	0x3de8624d	0.113468744
10	0x3eb34f6f	0.3502154
11	0x3e4f3660	0.20235586
12	0xbef09051	-0.46985105
13	0x3d937e5d	0.07201836
14	0x3f1d5879	0.61463124
15	0xbf0a306a	-0.53980124
16	0xbc98f52e	-0.018671598
17	0xbeb8bb03	-0.3608018
18	0x3ef7acd2	0.4837404
19	0xbe98982d	-0.298036
20	0x3dae6e71	0.08517159
21	0xbe8b222c	-0.2717451
22	0x3ea3f493	0.32022533
23	0x3e7100fd	0.23535533
24	0x3e2a346c	0.1662156
25	0xbe6bf58b	-0.23042886
26	0x3e5b7e4d	0.21434899
27	0x3edf4d71	0.4361377
28	0xbf2f8fa3	-0.6857855
29	0x3e13d84a	0.14437976
30	0x3eab8659	0.33500937
31	0xbe8601f2	-0.2617336
32	0x3e86ca42	0.26326185
33	0x3e912515	0.28348604
34	0xbdcb6d1e	-0.09932922
35	0xbe2b854d	-0.16750069
36	0xbd6d42e7	-0.05792513
37	0x3e8b04cb	0.27152094
38	0xbeb60428	-0.35550046
39	0x3e714571	0.23561646
40	0xbe9e12f9	-0.3087385
41	0x3e412a7b	0.18863861
42	0xbec6d57d	-0.38834754
43	0x3e0c31d0	0.13690877
44	0xbe899023	-0.2686778
45	0x3db4ef90	0.088347554
46	0x3e205938	0.15659034
47	0xbdce5b76	-0.100760385
48	0xbe8fdfa0	-0.281003
49	0x3e93c4c8	0.2886107
50	0x3e2732dd	0.16327997
51	0x3ec616c7	0.38689253
52	0x3f0dbc72	0.5536567
53	0x3d87318b	0.066012464
54	0x3e359fbf	0.1773672
55	0xbbb47fbf	-0.0055083926
56	0x3e133604	0.14376074
57	0x3db1c6b7	0.0868048
58	0x3eadc646	0.33940333
59	0x3db16796	0.086623356
60	0xbe2fcd9f	-0.17168282
61	0x3ddbfa22	0.107410684
62	0x3f1386ba	0.5762745
63	0x3df41acd	0.11919174
64	0x3e98e92b	0.29865393
65	0xbdfbcee8	-0.122953236
66	0x3ed7a5f5	0.42118803
67	0x3e601902	0.2188454
68	0x3e791bc6	0.24327001
69	0x3cff9dbc	0.031203143
70	0xbdac138d	-0.084021665
71	0xbc84c99d	-0.016209418
72	0xbdd55ebc	-0.1041846
73	0x3ddd09bb	0.107928716
74	0xbe49b9a9	-0.1969973
75	0xbdef9a67	-0.11699372
76	0xbddbd675	-0.10734264
77	0xbcbe716a	-0.02324744
78	0xbd4b58af	-0.049645122
79	0x3dc9dcf0	0.098565936
80	0x3e2ea04f	0.1705334
81	0xbe530ca2	-0.20610288
82	0x3bbc8182	0.005752743
83	0xbd004e15	-0.031324465
84	0xbd796ee4	-0.06089677
85	0x3dcd64ea	0.100290135
86	0x3bd2dbb5	0.0064348825
87	0xbca740ef	-0.020416705
88	0xbe412988	-0.18863499
89	0xbe82c271	-0.25538972
90	0xbdcd239e	-0.10016559
91	0x3cf356f2	0.029704545
92	0x3c8e48b8	0.01736866
93	0x3dc3d7b9	0.0956263
94	0x3e76153a	0.24031535
95	0xbe36e919	-0.17862357
96	0xbe3429ec	-0.17594117
97	0x3e894be9	0.26815727
98	0xbe4a24a4	-0.1974054
99	0x3d6cbceb	0.057797354
100	0x3de92d44	0.11385587
101	0xbe5468cc	-0.20743102
102	0xbc6be5eb	-0.014398078
103	0x3e74b2aa	0.2389628
104	0xbdc45fb4	-0.095885664
105	0xbd171a99	-0.0368906
106	0x3e96f2ec	0.2948221
107	0x3dbcb7f1	0.092147715
108	0xbd6ceebd	-0.057844866
109	0x3dd12b63	0.102133535
110	0x3ded8c1d	0.1159899
111	0xbd4b7024	-0.049667493
112	0x3d5bc122	0.053650983
113	0x3dbf40b9	0.09338517
114	0xbe2553c3	-0.16145234
115	0xbe6e3609	-0.232628
116	0x3dc699d9	0.09697313
117	0x3ea83eb8	0.3286035
118	0xbeb79b5f	-0.35860726
119	0xbe8e08da	-0.27741128
120	0x3e8b93a1	0.2726107
121	0xbe3f0a32	-0.18656233
122	0xbe5053ce	-0.20344469
123	0x3e2d08cf	0.16897891
124	0xbe55aa83	-0.20865826
125	0x3e4ed40f	0.20198081
126	0x3e22415d	0.15845247
127	0x3e60aaf9	0.21940221
128	0x3db2914e	0.08719121
129	0x3e0557ad	0.13021727
130	0x3ed28991	0.4112058
131	0xbe61c01c	-0.2204594
132	0x3f06b95b	0.5262658
133	0xbd4ca5ed	-0.049962927
134	0x3eb4d503	0.35318765
135	0xbc5f754e	-0.013638807
136	0x3e54a235	0.20765002
137	0xbdb57aa9	-0.08861286
138	0x3eb3194c	0.34980237
139	0x3eb7d076	0.3590123
140	0xbccaf6c5	-0.024775872
141	0x3ef53659	0.47893026
142	0x3f13a821	0.5767842
143	0xbe59cd91	-0.21269824
144	0x3e850536	0.25980538
145	0x3d8a2455	0.06745211
146	0x3dbf9c6d	0.09356008
147	0x3dee3cbc	0.11632678
148	0xbd3f141f	-0.04665005
149	0x3e9b1ebd	0.3029689
150	0xbce819e9	-0.028332667
151	0x3e594b39	0.21220101
152	0x3e904e4d	0.2818474
153	0xbf07dbf6	-0.5307001
154	0x3da10b2b	0.07863458
155	0xbf0a080b	-0.5391852
156	0x3d9d9dcb	0.07696112
157	0x3c88cca2	0.016699139
158	0x3ec907f6	0.39263886
159	0xbec8e604	-0.39237988
160	0x3d96a961	0.07356525
161	0x3c72f92a	0.014829913
162	0x3e23eee9	0.16009106
163	0xbbda7382	-0.0066666016
164	0x3e45f406	0.19331369
165	0xbeb5315a	-0.35389215
166	0x3e776437	0.24159323
167	0x3de0170d	0.109418966
168	0xbe15bdc2	-0.14623168
169	0xbede7071	-0.4344516
170	0x3db05e04	0.08611682
171	0xbe8db94d	-0.27680436
172	0xbe0b2e12	-0.13591793
173	0xbeeaa163	-0.45826253
174	0x3eef116c	0.4669298
175	0xbe682740	-0.22671223
176	0x3fab2bcb	1.337274
177	0x3f5644f0	0.8369894
178	0xbeecb7fe	-0.46234125
179	0x3ee465ad	0.44608822
180	0xbe9ddc33	-0.3083206
181	0x3ebf836c	0.37404954
182	0xbe3ab5b6	-0.1823338
183	0x3d9b4bab	0.07582792
184	0x3d760110	0.060059607
185	0x3dc42523	0.09577396
186	0xbe6c8803	-0.2309876
187	0xbe1686d5	-0.14699872
188	0x3b9a33e9	0.004705895
189	0x3ec3d007	0.3824465
190	0xbe286e74	-0.16448385
191	0xbde7f5e1	-0.113261946
192	0xbe49db91	-0.19712664
193	0xbeab0d61	-0.33408645
194	0xbd9cb548	-0.07651764
195	0x3d61f513	0.05516536
196	0xbd6640eb	-0.056214254
197	0xbdb1ee28	-0.08688003
198	0xbe004a4b	-0.1252834
199	0x3ec06469	0.37576607
200	0x3e6a7846	0.22897443
201	0x3ebfe50d	0.3747944
202	0x3decee86	0.11568932
203	0x3ed2dece	0.4118561
204	0x3ce9eed1	0.02855626
205	0x3e001004	0.1250611
206	0x3e1c70f6	0.15277466
207	0xbea6a9d3	-0.3255144
208	0xbf9502ee	-1.1641519
209	0xbf9bfdfc	-1.2186885
210	0xbfa1132d	-1.2583977
211	0x3b80a625	0.003926056
212	0xbf8f4d3e	-1.1195447
213	0xbf9d5c39	-1.2293769
214	0x3e5b7546	0.21431455
215	0x3edb9fe0	0.42895412
216	0x3e002ced	0.12517138
217	0xbeabe164	-0.33570397
218	0xbf63ca5c	-0.8898065
219	0x3dce5e8a	0.10076626
220	0x3df9aba8	0.12190944
221	0xbdb63343	-0.08896496
222	0x3e413e66	0.1887146
223	0x3f11ca16	0.56948984
224	0xbf4ab905	-0.7918857
225	0x3ee4931f	0.44643494
226	0x3e834f7f	0.25646588
227	0xbe126a0b	-0.14298265
228	0xbf510b92	-0.8165828
229	0xbea76108	-0.32691216
230	0x3df84602	0.12122728
231	0xbda19cc5	-0.078912295
232	0x3ec1468c	0.37749135
233	0xbe9e6bcf	-0.30941626
234	0xbda21e73	-0.07915964
235	0x3ed66ae3	0.41878423
236	0xbe95c7d5	-0.29254022
237	0xbe68b834	-0.22726518
238	0xbe00420c	-0.12525195
239	0xbe01c1c4	-0.12671572
240	0xbd049556	-0.03236898
241	0xbd9a45a4	-0.07532814
242	0x3e2fd7fe	0.17172238
243	0x3e0f4d60	0.1399436
244	0x3c9a2c8e	0.018820073
245	0x3f166edd	0.58762914
246	0xbcf590b2	-0.029976223
247	0x3f0f45ee	0.5596608
248	0x3df21868	0.118210614
249	0x3ea2f572	0.31827885
250	0xbe3da936	-0.1852158
251	0x3e724b2c	0.23661488
252	0x3da9916c	0.0827969
253	0xbe4890d1	-0.19586493
254	0x3d21e184	0.03952171
255	0xbdb2e8c0	-0.087358

bias f4 [20]
0	0xbcf53a5d	-0.029935056
1	0xbeda15fd	-0.425949
2	0xbedd357c	-0.43204868
3	0xbdc827f8	-0.097732484
4	0x3e8cae0e	0.27476543
5	0x3ef7ec8c	0.48422658
6	0xbe0a9040	-0.1353159
7	0x3e6ed08b	0.2332174
8	0x3e9d526c	0.30726945
9	0x3f2dd9bf	0.6791038
10	0x3e727b04	0.23679739
11	0xbbf98ac0	-0.0076154172
12	0x3e943434	0.28946078
13	0x3ebee150	0.37281275
14	0x3e014390	0.1262343
15	0xbacd86fa	-0.0015680485
16	0xbdd7d390	-0.10538399
17	0x3e1c08b3	0.15237693
18	0xbdd041a7	-0.10168772
19	0xbe12a970	-0.14322448

weight f4 [10, 20]
0	0x3d75af87	0.05998185
1	0xbee72b1c	-0.45150077
2	0xbf33d29f	-0.7024326
3	0xbe5b827b	-0.21436493
4	0x3d86e107	0.06585889
5	0x3ed450cc	0.41467893
6	0xbcc1baaf	-0.023648588
7	0x3f355541	0.7083321
8	0x3df1d6ec	0.11808571
9	0xbeeee693	-0.4666029
10	0x3ea96dc7	0.33091566
11	0xbd4a1ed8	-0.04934582
12	0x3f3a7485	0.72834045
13	0x3e5df9a0	0.21677256
14	0x3dd9bccb	0.106317125
15	0x3efbbe8a	0.49168807
16	0x3d5a8ddb	0.05335794
17	0x3e21f537	0.15816198
18	0x3ee93120	0.45545292
19	0xbda7192a	-0.081590965
20	0x3e61e93a	0.22061625
21	0xbdd85569	-0.10563166
22	0xbf180cf3	-0.5939476
23	0x3df0f8f6	0.117662355
24	0x39067126	0.00012821387
25	0x3ef98082	0.48730856
26	0xbe32172a	-0.17391649
27	0x3f52248a	0.82087004
28	0x3ea9b642	0.33146864
29	0xbf2b6f45	-0.6696666
30	0x3ea93d31	0.33054498
31	0xbe0b0a60	-0.13578176
32	0x3f3e8d09	0.7443395
33	0x3ee4893f	0.4463596
34	0x3eaa4102	0.33252722
35	0x3ea7502c	0.32678354
36	0xbe0e4ab4	-0.13895684
37	0x3efd75ea	0.49504024
38	0x3f521208	0.82058764
39	0x3d7eae18	0.062177747
40	0xbdc621a4	-0.09674385
41	0xbe9cf21e	-0.3065347
42	0xbf134f78	-0.57543135
43	0xbdfd4543	-0.12366726
44	0x3e8facb5	0.28061453
45	0x3ebd3cd1	0.36960462
46	0xbe1b9a7c	-0.1519565
47	0x3f333627	0.70004505
48	0x3ea7eb7b	0.32796845
49	0xbf3687e2	-0.7130109
50	0x3eef8410	0.46780443
51	0xbe355664	-0.17708737
52	0x3f4a87a7	0.7911324
53	0x3e5451ec	0.20734376
54	0x3e622e64	0.22088009
55	0x3e4226f8	0.18960178
56	0x3db4fe02	0.08837511
57	0x3ec5b16d	0.38611928
58	0x3f2b92c8	0.67020845
59	0xbdc1a00c	-0.09454355
60	0x3e1490fd	0.14508434
61	0xbef98100	-0.48731232
62	0xbea725a1	-0.32645896
63	0xbd064abe	-0.032786123
64	0x3d3eadd0	0.04655248
65	0x3f0cda33	0.55020446
66	0x3d64854a	0.055791177
67	0x3f104a17	0.5636305
68	0x3e730cdd	0.23735376
69	0xbf0ce175	-0.5503152
70	0x3e34fad7	0.17673813
71	0xbdfcefd5	-0.12350432
72	0x3f41f256	0.757604
73	0x3eb90c94	0.3614241
74	0x3d2c1f1c	0.042021856
75	0x3eedb7f3	0.46429405
76	0xbd228232	-0.039674945
77	0x3e6f528a	0.2337133
78	0x3ec81bbf	0.3908367
79	0xbe098462	-0.13429406
80	0xbdf8027f	-0.12109851
81	0x3d4fbf58	0.05071959
82	0xbe41a5c8	-0.18910897
83	0xbcc40142	-0.023926381
84	0x3ceaa5cb	0.02864351
85	0xbe51ff9e	-0.20507666
86	0x3cb9bd3b	0.02267324
87	0x3e583714	0.2111476
88	0xbe66b11c	-0.225285
89	0x3c144bb9	0.009051257
90	0x3e11d4c6	0.14241323
91	0x3dbb68d4	0.09150854
92	0xbdb55bdc	-0.088554114
93	0x3e3dae97	0.18523632
94	0xbd1d0aac	-0.038340256
95	0x3e3023ac	0.17201108
96	0xbdcef4e0	-0.101053
97	0xbde4ac78	-0.11165708
98	0xbe1e339d	-0.15449376
99	0xbd8fb436	-0.070167944
100	0xbda62432	-0.081123725
101	0xbe599460	-0.21248007
102	0xbd91a9d8	-0.07112473
103	0x3dea62e4	0.11444643
104	0xbe18ad24	-0.14909798
105	0x3e0b822c	0.13623875
106	0xbe4463a0	-0.19178629
107	0x39bf2400	0.0003645718
108	0xbe488222	-0.19580892
109	0x3da83ad0	0.082143426
110	0xbe3a863d	-0.1821527
111	0xbe16f0d4	-0.14740306
112	0xbe311cc2	-0.17296126
113	0x3c46d8e0	0.012136668
114	0xbe4dcf90	-0.2009871
115	0xbda48c5c	-0.08034584
116	0x3d7af310	0.06126696
117	0x3d094338	0.03351137
118	0xbe3be8a8	-0.1835047
119	0x3d8eb16c	0.06967434
120	0x3ed8691d	0.42267695
121	0x3f1cbec0	0.6122856
122	0x3f0e80f5	0.5566552
123	0xbd44a035	-0.048004348
124	0x3dbc7da0	0.092036486
125	0xbf56a4ef	-0.8384542
126	0x3f00efc9	0.50365883
127	0xbf4ddc0a	-0.8041388
128	0xbe39515c	-0.18097442
129	0x3fc8d6eb	1.5690588
130	0xbe8b5d09	-0.27219418
131	0x3c8d4f70	0.017249793
132	0xbf61ab75	-0.8815225
133	0xbf0d777c	-0.55260444
134	0xbed869ba	-0.42268163
135	0xbf29ca6c	-0.66324496
136	0x3ef486ad	0.47759
137	0xbed0503b	-0.4068621
138	0xbf95c504	-1.1700749
139	0xbd1a768c	-0.03771071
140	0xbe281e7d	-0.1641788
141	0x3d07fd70	0.03320068
142	0x3e298264	0.16553646
143	0xba3a8f00	-0.00071166456
144	0xbe1ef0b9	-0.15521516
145	0xbe614f95	-0.22003014
146	0x3c8139a0	0.015774548
147	0x3e16d51e	0.14729735
148	0x3d2810e8	0.041031748
149	0xbdd6621f	-0.10467934
150	0xbdf6f6b2	-0.12058772
151	0xbd01b870	-0.031670034
152	0xbdfbec44	-0.123009235
153	0xbe630c88	-0.22172749
154	0x3e1e7222	0.15473226
155	0xbcfe5830	-0.03104791
156	0xbca6c9a8	-0.020359829
157	0xbe1612ba	-0.14655581
158	0xbdddccaf	-0.10830056
159	0x3e369d24	0.17833382
160	0xbe4ffd22	-0.20311406
161	0x3e5039c8	0.20334542
162	0x3e285ef2	0.16442469
163	0x3e3be1aa	0.18347803
164	0xbe292cd9	-0.16521014
165	0x3e521fda	0.20519963
166	0xbe13117b	-0.14362137
167	0x3db18bf0	0.08669269
168	0xbdc10456	-0.09424655
169	0xbe3cdff9	-0.18444814
170	0xbdf2891c	-0.11842558
171	0xbc3fe5c0	-0.0117124915
172	0x3c815aa8	0.015790299
173	0xbe36adfa	-0.17839804
174	0x3e132edc	0.14373344
175	0x3d0d1a80	0.0344491
176	0xbe43dcc9	-0.19127192
177	0xbdc8b096	-0.09799306
178	0xbe5f615d	-0.21814485
179	0x3c4a74d0	0.012356952
180	0xbeaf631e	-0.34255308
181	0xbfbf00c7	-1.4922112
182	0x3e847fb7	0.2587869
183	0x3da85195	0.082186855
184	0x3e757292	0.23969486
185	0x3f11d05a	0.56958544
186	0x3e4f17b4	0.20223886
187	0x3e61fea3	0.22069792
188	0x3f0498f5	0.51795894
189	0x3ef492c9	0.47768238
190	0x3ea0a9ea	0.31379634
191	0xbd8a5e56	-0.067562744
192	0x3e92ea9a	0.28694612
193	0x3f2d7dde	0.67770183
194	0x3e1f1204	0.15534216
195	0xbf8c8699	-1.0978576
196	0xbf029f50	-0.5102434
197	0x3dbc09cf	0.09181558
198	0x3f00f13e	0.50368106
199	0x3df8bfa8	0.121459305

bias f4 [10]
0	0x3e9f855a	0.31156427
1	0x3e090d73	0.13384037
2	0x3ee75bb7	0.4518716
3	0x3e10aa07	0.1412736
4	0xbdec8fb9	-0.115508504
5	0xbe0cd2e1	-0.13752319
6	0x3e0f3db4	0.13988382
7	0xbe611423	-0.21980338
8	0x3c6835a0	0.014172941
9	0x3ef99c71	0.48752168

weight f4 [1, 10]
0	0xbef94937	-0.4868867
1	0xbf012267	-0.5044312
2	0xbf230198	-0.63674307
3	0xbf159ab9	-0.58439213
4	0xbdd7df19	-0.105405994
5	0xbc2b4740	-0.010453999
6	0x3f597133	0.84938353
7	0x3e13cb38	0.1443299
8	0xbe846c98	-0.258641
9	0x3f813790	1.0095081
